…
2025-06-09 18:06:29.578516: I tensorflow/core/platform/cpu_feature_guard.cc:210] This TensorFlow binary is optimized to use available CPU instructions in performance-critical operations.
To enable the following instructions: SSE3 SSE4.1 SSE4.2 AVX AVX2 AVX_VNNI FMA, in other operations, rebuild TensorFlow with the appropriate compiler flags.
Model: "functional_4"
┏━━━━━━━━━━━━━━━━━━━━━━━━━━━━━━━━━━━━━━┳━━━━━━━━━━━━━━━━━━━━━━━━━━━━━┳━━━━━━━━━━━━━━━━━┓
┃ Layer (type)                         ┃ Output Shape                ┃         Param # ┃
┡━━━━━━━━━━━━━━━━━━━━━━━━━━━━━━━━━━━━━━╇━━━━━━━━━━━━━━━━━━━━━━━━━━━━━╇━━━━━━━━━━━━━━━━━┩
│ input_layer (InputLayer)             │ (None, 200)                 │               0 │
├──────────────────────────────────────┼─────────────────────────────┼─────────────────┤
│ token_and_position_embedding         │ (None, 200, 128)            │       2,585,728 │
│ (TokenAndPositionEmbedding)          │                             │                 │
├──────────────────────────────────────┼─────────────────────────────┼─────────────────┤
│ transformer_block (TransformerBlock) │ (None, 200, 128)            │         297,344 │
├──────────────────────────────────────┼─────────────────────────────┼─────────────────┤
│ transformer_block_1                  │ (None, 200, 128)            │         297,344 │
│ (TransformerBlock)                   │                             │                 │
├──────────────────────────────────────┼─────────────────────────────┼─────────────────┤
│ transformer_block_2                  │ (None, 200, 128)            │         297,344 │
│ transformer_block_2                  │ (None, 200, 128)            │         297,344 │
│ (TransformerBlock)                   │                             │                 │
│ (TransformerBlock)                   │                             │                 │
├──────────────────────────────────────┼─────────────────────────────┼─────────────────┤
│ transformer_block_3                  │ (None, 200, 128)            │         297,344 │
│ (TransformerBlock)                   │                             │                 │
│ (TransformerBlock)                   │                             │                 │
├──────────────────────────────────────┼─────────────────────────────┼─────────────────┤
│ lambda (Lambda)                      │ (None, 128)                 │               0 │
│ lambda (Lambda)                      │ (None, 128)                 │               0 │
├──────────────────────────────────────┼─────────────────────────────┼─────────────────┤
│ dropout_12 (Dropout)                 │ (None, 128)                 │               0 │
├──────────────────────────────────────┼─────────────────────────────┼─────────────────┤
│ dense_8 (Dense)                      │ (None, 20)                  │           2,580 │
├──────────────────────────────────────┼─────────────────────────────┼─────────────────┤
│ dropout_13 (Dropout)                 │ (None, 20)                  │               0 │
├──────────────────────────────────────┼─────────────────────────────┼─────────────────┤
│ dense_9 (Dense)                      │ (None, 1)                   │              21 │
└──────────────────────────────────────┴─────────────────────────────┴─────────────────┘
 Total params: 3,777,705 (14.41 MB)
 Trainable params: 3,777,705 (14.41 MB)
 Non-trainable params: 0 (0.00 B)
Epoch 1/10
2500/2500 ━━━━━━━━━━━━━━━━━━━━ 364s 144ms/step - accuracy: 0.4907 - loss: 0.6984 - val_accuracy: 0.5062 - val_loss: 0.6931
Epoch 2/10
2500/2500 ━━━━━━━━━━━━━━━━━━━━ 344s 138ms/step - accuracy: 0.4954 - loss: 0.6933 - val_accuracy: 0.5062 - val_loss: 0.6931
…
